{"class_name": "Model", "config": {"name": "model_46", "layers": [{"name": "input_23", "class_name": "InputLayer", "config": {"batch_input_shape": [null, 256, 2], "dtype": "float32", "sparse": false, "name": "input_23"}, "inbound_nodes": []}, {"name": "reshape_23", "class_name": "Reshape", "config": {"name": "reshape_23", "trainable": true, "target_shape": [256, 2, 1]}, "inbound_nodes": [[["input_23", 0, 0, {}]]]}, {"name": "1_conv1", "class_name": "Conv2D", "config": {"name": "1_conv1", "trainable": true, "filters": 16, "kernel_size": [1, 1], "strides": [1, 1], "padding": "same", "data_format": "channels_last", "dilation_rate": [1, 1], "activation": "linear", "use_bias": true, "kernel_initializer": {"class_name": "VarianceScaling", "config": {"scale": 1.0, "mode": "fan_avg", "distribution": "uniform", "seed": null}}, "bias_initializer": {"class_name": "Zeros", "config": {}}, "kernel_regularizer": {"class_name": "L1L2", "config": {"l1": 0.0, "l2": 0.004999999888241291}}, "bias_regularizer": null, "activity_regularizer": null, "kernel_constraint": null, "bias_constraint": null}, "inbound_nodes": [[["reshape_23", 0, 0, {}]]]}, {"name": "1_conv2", "class_name": "Conv2D", "config": {"name": "1_conv2", "trainable": true, "filters": 16, "kernel_size": [3, 2], "strides": [1, 1], "padding": "same", "data_format": "channels_last", "dilation_rate": [1, 1], "activation": "linear", "use_bias": true, "kernel_initializer": {"class_name": "VarianceScaling", "config": {"scale": 1.0, "mode": "fan_avg", "distribution": "uniform", "seed": null}}, "bias_initializer": {"class_name": "Zeros", "config": {}}, "kernel_regularizer": null, "bias_regularizer": null, "activity_regularizer": null, "kernel_constraint": null, "bias_constraint": null}, "inbound_nodes": [[["1_conv1", 0, 0, {}]]]}, {"name": "1_bn", "class_name": "BatchNormalization", "config": {"name": "1_bn", "trainable": true, "axis": -1, "momentum": 0.99, "epsilon": 0.001, "center": true, "scale": true, "beta_initializer": {"class_name": "Zeros", "config": {}}, "gamma_initializer": {"class_name": "Ones", "config": {}}, "moving_mean_initializer": {"class_name": "Zeros", "config": {}}, "moving_variance_initializer": {"class_name": "Ones", "config": {}}, "beta_regularizer": null, "gamma_regularizer": null, "beta_constraint": null, "gamma_constraint": null}, "inbound_nodes": [[["1_conv2", 0, 0, {}]]]}, {"name": "1_act1", "class_name": "Activation", "config": {"name": "1_act1", "trainable": true, "activation": "relu"}, "inbound_nodes": [[["1_bn", 0, 0, {}]]]}, {"name": "1_conv3", "class_name": "Conv2D", "config": {"name": "1_conv3", "trainable": true, "filters": 16, "kernel_size": [3, 2], "strides": [1, 1], "padding": "same", "data_format": "channels_last", "dilation_rate": [1, 1], "activation": "linear", "use_bias": true, "kernel_initializer": {"class_name": "VarianceScaling", "config": {"scale": 1.0, "mode": "fan_avg", "distribution": "uniform", "seed": null}}, "bias_initializer": {"class_name": "Zeros", "config": {}}, "kernel_regularizer": null, "bias_regularizer": null, "activity_regularizer": null, "kernel_constraint": null, "bias_constraint": null}, "inbound_nodes": [[["1_act1", 0, 0, {}]]]}, {"name": "1_bn2", "class_name": "BatchNormalization", "config": {"name": "1_bn2", "trainable": true, "axis": -1, "momentum": 0.99, "epsilon": 0.001, "center": true, "scale": true, "beta_initializer": {"class_name": "Zeros", "config": {}}, "gamma_initializer": {"class_name": "Ones", "config": {}}, "moving_mean_initializer": {"class_name": "Zeros", "config": {}}, "moving_variance_initializer": {"class_name": "Ones", "config": {}}, "beta_regularizer": null, "gamma_regularizer": null, "beta_constraint": null, "gamma_constraint": null}, "inbound_nodes": [[["1_conv3", 0, 0, {}]]]}, {"name": "1_add", "class_name": "Add", "config": {"name": "1_add", "trainable": true}, "inbound_nodes": [[["1_bn2", 0, 0, {}], ["1_conv1", 0, 0, {}]]]}, {"name": "1_act2", "class_name": "Activation", "config": {"name": "1_act2", "trainable": true, "activation": "relu"}, "inbound_nodes": [[["1_add", 0, 0, {}]]]}, {"name": "3_0_conv1", "class_name": "Conv2D", "config": {"name": "3_0_conv1", "trainable": true, "filters": 32, "kernel_size": [1, 1], "strides": [1, 1], "padding": "same", "data_format": "channels_last", "dilation_rate": [1, 1], "activation": "linear", "use_bias": true, "kernel_initializer": {"class_name": "VarianceScaling", "config": {"scale": 1.0, "mode": "fan_avg", "distribution": "uniform", "seed": null}}, "bias_initializer": {"class_name": "Zeros", "config": {}}, "kernel_regularizer": {"class_name": "L1L2", "config": {"l1": 0.0, "l2": 0.004999999888241291}}, "bias_regularizer": null, "activity_regularizer": null, "kernel_constraint": null, "bias_constraint": null}, "inbound_nodes": [[["1_act2", 0, 0, {}]]]}, {"name": "3_0_conv2", "class_name": "Conv2D", "config": {"name": "3_0_conv2", "trainable": true, "filters": 32, "kernel_size": [3, 2], "strides": [1, 1], "padding": "same", "data_format": "channels_last", "dilation_rate": [1, 1], "activation": "linear", "use_bias": true, "kernel_initializer": {"class_name": "VarianceScaling", "config": {"scale": 1.0, "mode": "fan_avg", "distribution": "uniform", "seed": null}}, "bias_initializer": {"class_name": "Zeros", "config": {}}, "kernel_regularizer": null, "bias_regularizer": null, "activity_regularizer": null, "kernel_constraint": null, "bias_constraint": null}, "inbound_nodes": [[["3_0_conv1", 0, 0, {}]]]}, {"name": "3_0_bn", "class_name": "BatchNormalization", "config": {"name": "3_0_bn", "trainable": true, "axis": -1, "momentum": 0.99, "epsilon": 0.001, "center": true, "scale": true, "beta_initializer": {"class_name": "Zeros", "config": {}}, "gamma_initializer": {"class_name": "Ones", "config": {}}, "moving_mean_initializer": {"class_name": "Zeros", "config": {}}, "moving_variance_initializer": {"class_name": "Ones", "config": {}}, "beta_regularizer": null, "gamma_regularizer": null, "beta_constraint": null, "gamma_constraint": null}, "inbound_nodes": [[["3_0_conv2", 0, 0, {}]]]}, {"name": "3_0_act1", "class_name": "Activation", "config": {"name": "3_0_act1", "trainable": true, "activation": "relu"}, "inbound_nodes": [[["3_0_bn", 0, 0, {}]]]}, {"name": "3_0_conv3", "class_name": "Conv2D", "config": {"name": "3_0_conv3", "trainable": true, "filters": 32, "kernel_size": [3, 2], "strides": [1, 1], "padding": "same", "data_format": "channels_last", "dilation_rate": [1, 1], "activation": "linear", "use_bias": true, "kernel_initializer": {"class_name": "VarianceScaling", "config": {"scale": 1.0, "mode": "fan_avg", "distribution": "uniform", "seed": null}}, "bias_initializer": {"class_name": "Zeros", "config": {}}, "kernel_regularizer": null, "bias_regularizer": null, "activity_regularizer": null, "kernel_constraint": null, "bias_constraint": null}, "inbound_nodes": [[["3_0_act1", 0, 0, {}]]]}, {"name": "3_0_bn2", "class_name": "BatchNormalization", "config": {"name": "3_0_bn2", "trainable": true, "axis": -1, "momentum": 0.99, "epsilon": 0.001, "center": true, "scale": true, "beta_initializer": {"class_name": "Zeros", "config": {}}, "gamma_initializer": {"class_name": "Ones", "config": {}}, "moving_mean_initializer": {"class_name": "Zeros", "config": {}}, "moving_variance_initializer": {"class_name": "Ones", "config": {}}, "beta_regularizer": null, "gamma_regularizer": null, "beta_constraint": null, "gamma_constraint": null}, "inbound_nodes": [[["3_0_conv3", 0, 0, {}]]]}, {"name": "3_0_add", "class_name": "Add", "config": {"name": "3_0_add", "trainable": true}, "inbound_nodes": [[["3_0_bn2", 0, 0, {}], ["3_0_conv1", 0, 0, {}]]]}, {"name": "3_0_act2", "class_name": "Activation", "config": {"name": "3_0_act2", "trainable": true, "activation": "relu"}, "inbound_nodes": [[["3_0_add", 0, 0, {}]]]}, {"name": "max_pooling2d_23", "class_name": "MaxPooling2D", "config": {"name": "max_pooling2d_23", "trainable": true, "pool_size": [2, 1], "padding": "valid", "strides": [2, 1], "data_format": "channels_last"}, "inbound_nodes": [[["3_0_act2", 0, 0, {}]]]}, {"name": "conv2d_23", "class_name": "Conv2D", "config": {"name": "conv2d_23", "trainable": true, "filters": 16, "kernel_size": [1, 1], "strides": [1, 1], "padding": "valid", "data_format": "channels_last", "dilation_rate": [1, 1], "activation": "linear", "use_bias": true, "kernel_initializer": {"class_name": "VarianceScaling", "config": {"scale": 1.0, "mode": "fan_avg", "distribution": "uniform", "seed": null}}, "bias_initializer": {"class_name": "Zeros", "config": {}}, "kernel_regularizer": null, "bias_regularizer": null, "activity_regularizer": null, "kernel_constraint": null, "bias_constraint": null}, "inbound_nodes": [[["max_pooling2d_23", 0, 0, {}]]]}, {"name": "flatten_23", "class_name": "Flatten", "config": {"name": "flatten_23", "trainable": true, "data_format": "channels_last"}, "inbound_nodes": [[["conv2d_23", 0, 0, {}]]]}, {"name": "dense_23", "class_name": "Dense", "config": {"name": "dense_23", "trainable": true, "units": 20, "activation": "relu", "use_bias": true, "kernel_initializer": {"class_name": "VarianceScaling", "config": {"scale": 1.0, "mode": "fan_avg", "distribution": "uniform", "seed": null}}, "bias_initializer": {"class_name": "Zeros", "config": {}}, "kernel_regularizer": {"class_name": "L1L2", "config": {"l1": 0.0, "l2": 0.004999999888241291}}, "bias_regularizer": null, "activity_regularizer": null, "kernel_constraint": null, "bias_constraint": null}, "inbound_nodes": [[["flatten_23", 0, 0, {}]]]}, {"name": "dropout_23", "class_name": "Dropout", "config": {"name": "dropout_23", "trainable": true, "rate": 0.5, "noise_shape": null, "seed": null}, "inbound_nodes": [[["dense_23", 0, 0, {}]]]}, {"name": "sftmx_0", "class_name": "Dense", "config": {"name": "sftmx_0", "trainable": true, "units": 1, "activation": "sigmoid", "use_bias": true, "kernel_initializer": {"class_name": "VarianceScaling", "config": {"scale": 1.0, "mode": "fan_avg", "distribution": "uniform", "seed": null}}, "bias_initializer": {"class_name": "Zeros", "config": {}}, "kernel_regularizer": null, "bias_regularizer": null, "activity_regularizer": null, "kernel_constraint": null, "bias_constraint": null}, "inbound_nodes": [[["dropout_23", 0, 0, {}]]]}], "input_layers": [["input_23", 0, 0]], "output_layers": [["sftmx_0", 0, 0]]}, "keras_version": "2.2.4", "backend": "tensorflow"}